…
        </div></div>
      <div class=3D"output-iframe-container">
        <div class=3D"output-iframe-sizer">
        <div><div><colab-static-output-renderer tabindex=3D"0" role=3D"grou=
p"><div><div class=3D"stream output_text"><pre>Model: "sequential"
_________________________________________________________________
 Layer (type)                Output Shape              Param #  =20
=3D=3D=3D=3D=3D=3D=3D=3D=3D=3D=3D=3D=3D=3D=3D=3D=3D=3D=3D=3D=3D=3D=3D=3D=3D=
=3D=3D=3D=3D=3D=3D=3D=3D=3D=3D=3D=3D=3D=3D=3D=3D=3D=3D=3D=3D=3D=3D=3D=3D=3D=
=3D=3D=3D=3D=3D=3D=3D=3D=3D=3D=3D=3D=3D=3D=3D
 conv2d (Conv2D)             (None, 148, 148, 64)      1792     =20
                                                                =20
 max_pooling2d (MaxPooling2D  (None, 74, 74, 64)       0        =20
 )                                                              =20
                                                                =20
 conv2d_1 (Conv2D)           (None, 72, 72, 128)       73856    =20
                                                                =20
 max_pooling2d_1 (MaxPooling  (None, 36, 36, 128)      0        =20
 2D)                                                            =20
                                                                =20
 dropout (Dropout)           (None, 36, 36, 128)       0        =20
                                                                =20
 conv2d_2 (Conv2D)           (None, 34, 34, 128)       147584   =20
                                                                =20
 max_pooling2d_2 (MaxPooling  (None, 17, 17, 128)      0        =20
 2D)                                                            =20
                                                                =20
 dropout_1 (Dropout)         (None, 17, 17, 128)       0        =20
                                                                =20
 conv2d_3 (Conv2D)           (None, 15, 15, 64)        73792    =20
                                                                =20
 max_pooling2d_3 (MaxPooling  (None, 7, 7, 64)         0        =20
 2D)                                                            =20
                                                                =20
 dropout_2 (Dropout)         (None, 7, 7, 64)          0        =20
                                                                =20
 flatten (Flatten)           (None, 3136)              0        =20
                                                                =20
 dense (Dense)               (None, 256)               803072   =20
                                                                =20
 dense_1 (Dense)             (None, 256)               65792    =20
                                                                =20
 dense_2 (Dense)             (None, 128)               32896    =20
                                                                =20
 dense_3 (Dense)             (None, 2)                 258      =20
                                                                =20
=3D=3D=3D=3D=3D=3D=3D=3D=3D=3D=3D=3D=3D=3D=3D=3D=3D=3D=3D=3D=3D=3D=3D=3D=3D=
=3D=3D=3D=3D=3D=3D=3D=3D=3D=3D=3D=3D=3D=3D=3D=3D=3D=3D=3D=3D=3D=3D=3D=3D=3D=
=3D=3D=3D=3D=3D=3D=3D=3D=3D=3D=3D=3D=3D=3D=3D
Total params: 1,199,042
Trainable params: 1,199,042
Non-trainable params: 0
_________________________________________________________________
…
